Comparison_Multivariate/.lr_find_a0efb5e3-6d32-441e-b480-7eb4a10742b0.ckpt (torch, 15282 bytes, 5 tensors)

trend_deltas f4 [1, 1, 11]
00000000: 487e 56be 213f 41bf 496c 1cbf 4e7f 9f3e
00000010: 9f88 0abe 4f61 203e 7389 9fbd ac20 6c3d
00000020: 29ac ab3d 5b78 9f3d eb34 233d
-0.2094661 -0.7548695 -0.6110273 0.31151813 -0.1352868 0.1566212 -0.07789888 0.057648346
0.08382446 0.07786628 0.03984539

trend_changepoints_t f4 [11]
00000000: 0000 0000 09f2 943d 09f2 143e 0e6b 5f3e
00000010: 09f2 943e 8c2e ba3e 0e6b df3e c853 023f
00000020: 09f2 143f 4a90 273f 8c2e 3a3f
0.0 0.07272727 0.14545454 0.21818182 0.29090908 0.36363637 0.43636364 0.5090909
0.58181816 0.6545454 0.72727275

season_params.daily f4 [1, 1, 12]
00000000: 74ff 003f a186 15bd 168f bf3e ac3c 06be
00000010: 1536 803e a4a9 23be cc9c 90be 90de 873e
00000020: 0864 16bf ac2d 8e3e 5f6b 9cbe 3b08 b4bd
0.5038979 -0.036505345 0.37413853 -0.13109082 0.2504126 -0.15982682 -0.28244627 0.2653699
-0.58746386 0.2776922 -0.30550668 -0.08790632

season_params.weekly f4 [1, 1, 6]
00000000: e513 06bf c5c2 d63c 0c2d 963e 233a f53d
00000010: 97e0 013f f2c3 043f
-0.52374107 0.02621592 0.29331243 0.11973979 0.5073332 0.5186149

ar_net.0.weight f4 [1, 336]
00000000: 90a6 de3d 539b afbd 6e4d 083d 96f3 0a3e
00000010: 0689 9ebd ff92 0cbd 3c32 97bc db50 ec3c
00000020: 156e 443e eb65 fc3c 87a9 203d 842a c9bb
00000030: 0590 2cbb d23e b63d b04d 5dbd 84ef 2f3c
00000040: 7542 a2bb 6c17 c3bd fe85 e93c 02b7 f93c
00000050: 6090 babd 00c6 02bd 99b5 98bb 5caa c4bd
00000060: e7a1 6bbd 91a7 8d3d 5ebb 313c cf45 ff3d
00000070: f56e 01bd 8a31 70bb 008e 9ebb 6223 74bd
00000080: 5182 56bd 3b3b 1ebd f30e 5cbe e7c9 9b3d
00000090: 95be 0c3e 80c4 8c3d 2e90 3bbd 8c29 9cbd
000000a0: 845f 8fbd 7244 00be 9e24 7d3d 85d6 1d3e
000000b0: fad1 083e dd80 04bc 9b36 533d 2b38 0d3d
000000c0: 30c3 103d 9885 54bd e045 d63d 7bea c0bd
000000d0: c048 73bd 4d99 7ebd fe8f 803d 91f0 4dba
000000e0: 3d5e 143d d2c9 e23c c17d 83bc dd25 9dbd
000000f0: 658f e1bc dd00 d23c 9457 1bbe 097f 6b3d
00000100: b377 133e 345e 97bd 05b2 463d 45fc 1dbb
00000110: 7db6 483d 2196 b23a 4fb1 ff3d 35f3 e3bb
00000120: a6bf 013d 939a 9e3d 7200 afbd e5e4 cc3d
00000130: 91da 3bbc 7efd 1f3e 1b50 203d 4e15 15bd
00000140: 13b9 853c acb3 a4bd ffae 8b3d 3cd6 6bbd
00000150: 3935 11bb d5f6 b63c 1817 d13d 8ac4 9ebd
00000160: 2ee3 463d 065a d33b 9123 9d3c f8f3 81bd
00000170: 33bc e5bc 7f36 0bbb 7ba7 893d 2c59 fe3c
00000180: c44a dabc 5b65 8d3d 892d 0fbd 5a42 dd3d
00000190: 8b60 713d acaa 713c d6d6 2bbd 5d8d a7bd
000001a0: 5cf2 043e 3020 3a3e aa12 cebc 6d81 66bd
000001b0: a6f2 d73d d340 0dbe c547 813c 4550 03be
000001c0: a3ac 06be a51b 42bd 4cc3 d93c 0ae5 fc3c
000001d0: 1cfc 6abc 95e9 fe3c 3c00 693d a68a 2c3d
000001e0: e71d c23d da81 cabd 0d3b 993c ed2d 843d
000001f0: c3a5 d3bd 3c7b 8c3a b28a adbd 4e14 173d
00000200: 581c 51ba ccde 82bd f907 f3bd a1fb d53c
00000210: 63ba b33d 5718 eb3d 4e4c d53d e022 16bc
00000220: 0fe0 b73d 562a aabd 87c0 443c a9ce 2e3d
00000230: 2c31 433d 00be 2c3d c608 133e 4605 1e3d
00000240: e3e2 cf3c a174 debc a15a c03d 66a8 ae3d
00000250: 8f79 773d 94c2 b1bd d64e b8bd 45b5 82bd
00000260: 7961 153d 31b6 85bb 6f63 a3bc 7588 dbbd
00000270: fc0f dd3a 01e8 353d b1c4 2cbb 9253 dd3d
00000280: 5090 633c 00e9 3e3c 4a4b b6bd f9b8 8ebd
00000290: f260 5d3c 4c37 613d c22c 0bbd 7847 c5bd
000002a0: b950 39bd ea22 2f3d 5272 ecbd 2dfb f53b
000002b0: 0b4d afbd 902c c6bd 1d3f 19bd 2544 16bc
000002c0: 655d 98bc c35b 4d3d 5f62 0e3e 2cb7 d63c
000002d0: 50c7 65bb 4248 ca3d 733a 3cbb 83f0 cbbd
000002e0: 1e7d b93c b74e debd 6348 31bc 0f02 7fbd
000002f0: 04d9 b23b 1c7c 0abe 9712 9bbd 3a15 01bd
00000300: e4f8 0d3d 0eb6 b53a 41b2 80bb 902e 0e3e
00000310: be8f 71be 379c 08be 5e61 97bd 3aeb 7c3d
00000320: 4ae9 85bb d879 813d 05d4 e23b a6fd 3c3d
00000330: e256 9b3d df3a efbc 61d4 afbd 2c1d b33d
00000340: 58b5 87bd 113e 063d 4228 e63c 6ff4 ab3d
00000350: cc91 5b3a 5608 b1bd af7c 503a 7aab c4bc
00000360: 2422 4f3d a051 9b3b 1cee 9ebc 833a 5bbd
00000370: e04e 433c a2db 88bd 5c16 b3bc bf94 18bd
00000380: b240 993d ef6e 95bc eec2 13be cc15 cf3c
00000390: 533d 25bd 6906 933d 763c 8dbd 0e2c 2fbc
000003a0: 353d 0b3d c306 51bb 6b41 5c3d 2b73 30bc
000003b0: ecec 8a3d 137e 7ebd 714a 29bc 7542 883d
000003c0: 9d6c df3c d645 85bd 7d64 37bc a08e ca3b
000003d0: 05da df3d ce91 273e d2a1 45bd b878 ecbd
000003e0: 055a 90bd 934d 56bd 0606 babd 5cd0 a3bd
000003f0: 9e75 b6bc 3db0 3c3d d2b6 b6bd 5c90 873c
0.10871613 -0.085745476 0.033276968 0.13569483 -0.07740979 -0.034319874 -0.01845657 0.028847149
0.19182618 0.030810317 0.039224174 -0.0061391015 -0.002633096 0.08898701 -0.054029167 0.010738257
-0.00495177 -0.09525952 0.028506275 0.030482773 -0.091095686 -0.03192711 -0.00466032 -0.09602806
-0.05752745 0.069167264 0.0108478945 0.12464487 -0.031599957 -0.0036650621 -0.004838705 -0.059604056
-0.052370373 -0.038630705 -0.21490078 0.07606869 0.13744576 0.06873417 -0.045791797 -0.07625112
-0.0700064 -0.1252611 0.0618025 0.15413864 0.1336135 -0.008087364 0.051565748 0.034477394
0.035342395 -0.051885217 0.10462546 -0.094197236 -0.05939555 -0.062157918 0.06277464 -0.00078559766
0.036222685 0.027684126 -0.016051175 -0.076732375 -0.027534196 0.025635177 -0.15170127 0.057494197
0.1440113 -0.07391015 0.048509616 -0.0024106663 0.04900216 0.0013625064 0.12484991 -0.006956483
0.03167691 0.077443264 -0.08545007 0.10004596 -0.0114656845 0.15624043 0.039138895 -0.03639727
0.016323602 -0.08042082 0.06820487 -0.057577357 -0.0022156967 0.022334496 0.10209483 -0.077523306
0.0485565 0.0064499406 0.019181998 -0.063453615 -0.028043842 -0.00212422 0.067213975 0.03104838
-0.02664698 0.06904098 -0.034955535 0.10803671 0.05892996 0.014750164 -0.04195293 -0.0818126
0.12983078 0.18176341 -0.025155384 -0.056275774 0.105443284 -0.1379426 0.015781293 -0.12823589
-0.13151793 -0.047389645 0.026582383 0.030870933 -0.014342334 0.03111724 0.05688499 0.042124413
0.0947836 -0.098880485 0.018704915 0.06454072 -0.10334351 0.0010717879 -0.0847372 0.0368846
-0.0007976941 -0.063901514 -0.11866755 0.026120963 0.08775785 0.11479252 0.104149446 -0.009163588
0.08978283 -0.08308856 0.012008793 0.042677555 0.047654316 0.042173386 0.14358816 0.038579248
0.025376743 -0.027155222 0.09392286 0.08528213 0.06041866 -0.08679691 -0.08999412 -0.06382231
0.03646991 -0.004080557 -0.019944875 -0.107193865 0.0016865726 0.04441071 -0.0026362354 0.108069554
0.013889387 0.011652231 -0.08901079 -0.069688745 0.013511883 0.054984376 -0.03397823 -0.09632772
-0.045243 0.042757906 -0.11545242 0.007506749 -0.08559617 -0.09676468 -0.037413705 -0.00917152
-0.018599221 0.05013634 0.13904713 0.02621039 -0.0035061426 0.09877063 -0.0028721362 -0.09957983
0.022642668 -0.108548574 -0.010820481 -0.062257823 0.005457999 -0.13523906 -0.07571905 -0.031514384
0.03466119 0.0013863461 -0.0039274995 0.1388495 -0.2358999 -0.13340841 -0.07391618 0.061747767
-0.004086648 0.06322068 0.0069222474 0.046140336 0.07584931 -0.029202877 -0.0858543 0.087457985
-0.066263855 0.032774035 0.028095368 0.083962314 0.00083759124 -0.08644168 0.00079531496 -0.024007548
0.05056967 0.004739955 -0.019400649 -0.053522598 0.011920661 -0.06682517 -0.021861248 -0.03725123
0.07483043 -0.018241374 -0.14429829 0.025278948 -0.040341686 0.07178957 -0.06896298 -0.010691656
0.03399392 -0.00318949 0.053773325 -0.010769646 0.067834705 -0.062131952 -0.01033269 0.06653301
0.02727347 -0.06507461 -0.011193392 0.006181553 0.10930256 0.16364214 -0.048250027 -0.11546463
-0.0704842 -0.052320074 -0.0908318 -0.07998726 -0.022272881 0.04606651 -0.08921589 0.016548328
