Comparison_Multivariate/.lr_find_2bdbf6b9-f9ae-4203-aa15-e4854afff0c7.ckpt (torch, 14008 bytes, 5 tensors)

trend.trend_deltas f4 [1, 1, 11]
0.036995817 -0.17075114 0.1124983 -0.2689467 -0.4550131 0.111677855 0.43915206 0.28336334
0.23362571 0.057850808 0.38104844
00000000: ed88 173d 63d9 2ebe 8265 e63d 62b3 89be
00000010: 7af7 e8be 5cb7 e43d 8ad8 e03e 0015 913e
00000020: 943b 6f3e f8f4 6c3d c818 c33e

trend.trend_changepoints_t f4 [11]
0.0 0.07272727 0.14545454 0.21818182 0.29090908 0.36363637 0.43636364 0.5090909
0.58181816 0.6545454 0.72727275
00000000: 0000 0000 09f2 943d 09f2 143e 0e6b 5f3e
00000010: 09f2 943e 8c2e ba3e 0e6b df3e c853 023f
00000020: 09f2 143f 4a90 273f 8c2e 3a3f

seasonality.season_params.daily f4 [1, 1, 12]
0.018105367 -0.22121356 0.3173263 0.79574406 0.050599936 -0.26890698 -0.43459743 -0.19080922
0.3819754 0.010713977 -0.08224623 -0.038521312
00000000: b551 943c cf85 62be 9878 a23e e2b5 4b3f
00000010: e141 4f3d 2dae 89be 8e83 debe 7e63 43be
00000020: 4892 c33e ad89 2f3c b670 a8bd 86c8 1dbd

seasonality.season_params.weekly f4 [1, 1, 6]
0.07838166 0.22158548 -0.90581286 0.10573 -0.42037416 -0.20443377
00000000: 9086 a03d 4ee7 623e 5ae3 67bf f888 d83d
00000010: 483b d7be 1657 51be

ar_net.0.weight f4 [1, 24]
0.08330467 0.11160116 -0.058042154 -0.03404259 -0.23941758 -0.40624 0.46963018 0.04973099
-0.6702175 -0.34537387 0.05687713 -0.33986655 -0.01909429 -0.1034482 -0.45078403 -0.1023767
-0.23490241 0.26680404 -0.071401276 -0.40858713 -0.31138173 -0.20810874 0.42458123 0.07956897
00000000: a49b aa3d 268f e43d 9cbd 6dbd 3e70 0bbd
00000010: e229 75be b0fe cfbe 5e73 f03e b9b2 4b3d
00000020: 6093 2bbf d8d4 b0be fef7 683d fd02 aebe
00000030: a16b 9cbc a6dc d3bd 2acd e6be e0aa d1bd
00000040: 428a 70be 8a9a 883e d53a 92bd 5532 d1be
00000050: 6d6d 9fbe 751a 55be b662 d93e 0ef5 a23d
