Comparison_Multivariate/.lr_find_9d2e805b-2f0d-469f-96de-2ecb364499c0.ckpt (torch, 14008 bytes, 5 tensors)

trend.trend_deltas f4 [1, 1, 11]
0	0xbe219327	-0.1577879
1	0xbd9b4993	-0.075823925
2	0xbea2f24c	-0.31825483
3	0xbe2cabab	-0.16862361
4	0xbd13d6c8	-0.036093503
5	0xbd49fa38	-0.049310893
6	0xbd9aa8ed	-0.07551751
7	0xbea7fe4d	-0.32811204
8	0x3aae2c4b	0.0013288347
9	0x3d8fbefb	0.070188485
10	0xbe7d377e	-0.247282

trend.trend_changepoints_t f4 [11]
0	0x00000000	0.0
1	0x3d94f209	0.07272727
2	0x3e14f209	0.14545454
3	0x3e5f6b0e	0.21818182
4	0x3e94f209	0.29090908
5	0x3eba2e8c	0.36363637
6	0x3edf6b0e	0.43636364
7	0x3f0253c8	0.5090909
8	0x3f14f209	0.58181816
9	0x3f27904a	0.6545454
10	0x3f3a2e8c	0.72727275

seasonality.season_params.daily f4 [1, 1, 12]
0	0x3ea3b38a	0.31972915
1	0x3e427259	0.18988933
2	0xbc482a45	-0.012217109
3	0x3e0765e5	0.13222463
4	0x3d2b3699	0.041800115
5	0xbed1cd1b	-0.40976796
6	0x3f170c05	0.59002715
7	0x3e8e73d0	0.27822733
8	0x3dc1cde6	0.094631
9	0xbed574ca	-0.41690665
10	0xbecc7ca5	-0.39938846
11	0xbe6c171c	-0.2305569

seasonality.season_params.weekly f4 [1, 1, 6]
0	0xbe4fa12c	-0.20276326
1	0x3f08e9c5	0.53481704
2	0x3e255c6f	0.16148542
3	0x3d15a04a	0.036529817
4	0xbd8ca3d1	-0.06867183
5	0xbe45a292	-0.19300297

ar_net.0.weight f4 [1, 24]
0	0x3e3e6fc1	0.18597318
1	0x3f91371d	1.1344944
2	0xbd131ef5	-0.035918195
3	0x3dae9ba4	0.0852578
4	0x3de23a4b	0.11046275
5	0xbe227fdd	-0.15869088
6	0xbe92eb8f	-0.28695342
7	0x3ec6ee85	0.3885385
8	0x3dbe6924	0.09297398
9	0xbcf030c8	-0.029320136
10	0x3d7391b2	0.059465118
11	0x3eb3d929	0.35126618
12	0x3eb6ab7f	0.35677716
13	0xbcecfad4	-0.028928198
14	0x3f1de1d0	0.6167269
15	0x3ca59c1b	0.020216038
16	0x3e138462	0.14405969
17	0x3c859af2	0.016309235
18	0x3df012ba	0.11722322
19	0xbf00775a	-0.50182116
20	0x3eafe6c3	0.34355745
21	0x3f42beff	0.76072687
22	0x3d870f99	0.06594772
23	0x3dbf9679	0.09354872
